super_res1/v3/lightning_logs/version_0/checkpoints/epoch=999-step=2000.ckpt (torch, 251147 bytes, 18 tensors)

model.model.0.weight f4 [64, 3, 9, 9]
0.014148805 -0.04396901 -0.045161657 -0.027138732 -0.0009394519 0.0021337208 -0.0027796354 -0.058711912
-0.04494399 -0.025485592 -0.035187196 -0.029393043 -0.0036796816 0.02753668 -0.03681246 0.01608229
0.033389878 -0.063344084 0.05103921 -0.05388586 -0.041339822 -0.031743627 0.03932417 -0.046085663
0.046813633 0.014644516 0.020374224 -0.045104057 -0.0482158 -0.041855242 0.03622356 -0.058381047
0.0036553247 -0.046312302 -0.019060696 0.0040145614 -0.054658942 -0.04160032 -0.061476227 -0.030353451
-0.026824953 0.0033103826 0.042474885 -0.016547205 -0.021037092 -0.033225175 -0.055312824 -0.051743258
-0.03777065 0.021307671 0.0057502827 0.02533705 -0.06268243 0.025111437 -0.033065125 -0.034732454
0.054682758 0.023038445 0.017202077 -0.009441654 0.041654952 -0.028302502 -0.06438032 0.046363186
0.015885841 -0.0057374923 -0.024380868 -0.048809603 0.025284704 0.053201504 0.0017370691 0.03794334
-0.04421813 -0.033005886 -0.010124771 -0.07345919 0.004488571 -0.013155468 -0.008413345 -0.03488058
0.03850106 0.006877407 -0.06603431 -0.024171403 -0.058501896 -0.004377336 0.0010473056 -0.026438829
0.046388544 0.009470387 -0.07066035 -0.043299034 0.012779887 0.007904797 0.034900185 0.031269845
-0.049918998 0.028457223 -0.03547398 0.044433642 -0.020009117 0.036111116 0.021782408 -0.032300863
-0.007616861 -0.017410604 -0.02927388 -0.016591785 0.041168507 -0.03872236 0.052653473 -0.007735994
-0.0016984482 0.041766204 0.021585941 0.025753435 -0.057592392 0.0106038265 -0.046920255 -0.052097622
-0.06269165 0.00034303908 -0.04798557 -0.043635927 0.026505493 0.020085579 -0.0006776466 0.0277749
0.001369168 -0.021378784 -0.06296359 0.038574263 -0.06478782 -0.000708313 0.04241426 -0.063826144
-0.061173324 -0.045611512 -0.03616543 0.052042127 0.021415308 0.04511715 0.0019151623 -0.037504606
-0.015140341 0.042521942 0.01349177 0.05422597 0.044892874 -0.045055695 -0.07224546 0.051306896
-0.06422798 -0.06200007 0.04171162 0.04348923 -0.003476756 -0.04046992 -0.046593376 -0.045038465
0.027069991 -0.046105254 -0.04597015 -0.008929766 -0.07306593 0.020203702 0.027910523 -0.024005616
0.04254445 0.03652377 -0.034492932 -0.031728677 0.016346902 -0.04116558 -0.05696897 0.05281119
0.004999795 -0.050824516 -0.04327251 -0.04158007 0.014243312 -0.050101075 -0.027347472 -0.008292556
-0.03650693 0.04963251 -0.049601726 -0.03410565 0.043038905 0.05327898 -0.026919678 -0.051119745
0.00417424 -0.0020558645 0.03232621 -0.06411845 -0.0009544593 -0.07311263 -0.06621103 0.02325006
-0.055057634 0.050937377 -0.030049047 -0.0521769 0.038064905 0.045199256 0.050639454 -0.06159836
0.0050904937 -0.0008985085 -0.015057631 0.03676394 -0.026518159 0.013531531 0.049620822 0.03557726
0.043549467 -0.0026099356 -0.03303126 -0.009365859 0.050199565 0.022911409 0.024565104 -0.05309716
0.0025027131 -0.027726369 -0.028063599 -0.061425187 0.0012818493 0.03821443 0.027097454 -0.0014633139
0.050391484 -0.0009464773 0.026546543 0.020534234 -0.036699887 0.04475755 -0.06605559 0.054491706
0.00020506677 0.031706903 -0.07110034 0.032244045 -0.035143133 -0.030892616 -0.011295914 -0.01623769
0.022161234 -0.0041559944 0.027215814 -0.017165478 -0.008430131 -0.028562317 -0.054046083 -0.06393998
00000000: 64d0 673c d918 34bd 6efb 38bd 0c52 debc
00000010: 8d45 76ba e5d5 0b3b 8b2a 36bb e77b 70bd
00000020: 3017 38bd 29c7 d0bc 7320 10bd aec9 f0bc
00000030: d026 71bb 9b94 e13c a9c8 16bd 02bf 833c
00000040: d3c3 083d 8bba 81bd 7e0e 513d 6bb7 5cbd
00000050: f253 29bd 9b05 02bd 6212 213d 52c4 3cbd
00000060: a7bf 3f3d 8def 6f3c d8e7 a63c 08bf 38bd
00000070: ee7d 45bd 6770 2bbd 285f 143d f720 6fbd
00000080: 2c8e 6f3b f8b1 3dbd 2d25 9cbc 958c 833b
00000090: 0ee2 5fbd 1965 2abd 7fce 7bbd cda7 f8bc
000000a0: 01c0 dbbc 01f3 583b 25fa 2d3d 018e 87bc
000000b0: fb55 acbc 1f17 08bd b38f 62bd bdf0 53bd
000000c0: 66b5 1abd 6d8d ae3c de6c bc3b a58f cf3c
000000d0: a55f 80bd 80b6 cd3c 4c6f 07bd 9e43 0ebd
000000e0: 07fb 5f3d 1fbb bc3c 5feb 8c3c 2bb1 1abc
000000f0: 629e 2a3d a6da e7bc d4d9 83bd 53e7 3d3d
00000100: 0623 823c 9301 bcbb 63ba c7bc 94ec 47bd
00000110: de21 cf3c d2e9 593d 5eae e33a 7a6a 1b3d
00000120: 121e 35bd 2e31 07bd 5ee2 25bc c671 96bd
00000130: dd14 933b 088a 57bc 20d8 09bc f0de 0ebd
00000140: 4ab3 1d3d df5b e13b ff3c 87bd 1b03 c6bc
00000150: af9f 6fbd c16f 8fbb bf45 893a 3e96 d8bc
00000160: ea01 3e3d af29 1b3c 60b6 90bd 545a 31bd
00000170: bb62 513c 1f83 013c 7ff3 0e3d cf14 003d
00000180: dd77 4cbd 1f1f e93c 2a4d 11bd 0d00 363d
00000190: 29ea a3bc 40e9 133d 0571 b23c e94d 04bd
000001a0: dc96 f9bb afa0 8ebc c7cf efbc 7feb 87bc
000001b0: 4fa0 283d 569b 1ebd 2bab 573d 397e fdbb
000001c0: 779e deba 0a13 2b3d 00d5 b03c def8 d23c
000001d0: 00e6 6bbd acbb 2d3c 742f 40bd 5164 55bd
000001e0: 7b64 80bd edd9 b339 848c 44bd 96bb 32bd
000001f0: 0c22 d93c 838a a43c 18a4 31ba 3088 e33c
00000200: a875 b33a 8f22 afbc 0ef3 80bd 0c00 1e3d
00000210: 7aaf 84bd 15ae 39ba 93ba 2d3d 48b7 82bd
00000220: e190 7abd 23d3 3abd 3422 14bd 202a 553d
00000230: 286f af3c c3cc 383d 2f06 fb3a 6e9e 19bd
00000240: 310f 78bc 7d2b 2e3d 960c 5d3c 0d1c 5e3d
00000250: 97e1 373d 528c 38bd 6df5 93bd 2e27 523d
00000260: f689 83bd c9f3 7dbd ced9 2a3d c321 323d
00000270: 49da 63bb c9c3 25bd b2d8 3ebd 417a 38bd
00000280: e3c1 dd3c ddd8 3cbd 324b 3cbd 274e 12bc
00000290: 97a3 95bd 3c82 a53c 9ca4 e43c 6da7 c4bc
000002a0: 1743 2e3d f399 153d 7648 0dbd eef5 01bd
000002b0: f0e9 853c 3d9d 28bd 4b58 69bd 8c50 583d
000002c0: 52d5 a33b 5e2d 50bd 843e 31bd dd4f 2abd
000002d0: c85c 693c c936 4dbd ce07 e0bc 80dd 07bc
000002e0: 4a88 15bd 754b 4b3d 2e2b 4bbd 5eb2 0bbd
000002f0: 9049 303d 0f3b 5a3d a886 dcbc f062 51bd
00000300: 10c8 883b afbb 06bb 7d68 043d 8950 83bd
00000310: ae34 7aba 13bc 95bd a699 87bd e976 be3c
00000320: 1d84 61bd b6a3 503d 6b29 f6bc 72b7 55bd
00000330: f2e9 1b3d db22 393d 516b 4f3d 904e 7cbd
00000340: 28ce a63b e289 6bba 48b4 76bc c995 163d
00000350: 9c3c d9bc 5bb3 5d3c 343f 4b3d 76b9 113d
00000360: ed60 323d 740b 2bbb c94b 07bd 4373 19bc
00000370: 0f9e 4d3d b5b0 bb3c c23c c93c 687c 59bd
00000380: 8f04 243b 6922 e3bc a2e5 e5bc fa98 7bbd
00000390: ba03 a83a bc86 1c3d 7bfb dd3c abcc bfba
000003a0: 4d67 4e3d 041d 78ba 2378 d93c 6937 a83c
000003b0: 9f52 16bd b153 373d 2748 87bd b232 5f3d
000003c0: 3107 5739 19df 013d 0e9d 91bd 5512 043d
000003d0: 3ff2 0fbd 8312 fdbc 7f12 39bc e704 85bc
000003e0: 7a8b b53c 022f 88bb b3f3 de3c 9e9e 8cbc
000003f0: 881e 0abc 85fb e9bc 6d5f 5dbd f7f2 82bd

model.model.0.bias f4 [64]
-0.03034315 0.03530846 0.007874005 -0.08067313 -0.033294536 0.048487797 -0.029313104 -0.04218833
-0.056796875 0.003848123 -0.027883897 0.059587095 -0.048816454 0.055276155 0.030630201 0.006210478
-0.0283669 -0.016899275 0.061963778 -0.043759417 -0.01195762 -0.01487879 0.049065888 -0.035971887
-0.0119293 0.03498165 0.036757145 -0.034890786 -0.0035783828 0.005795475 -0.04733391 0.067156754
-0.013498103 0.027519071 0.009739004 -0.008080811 -0.025649432 0.038232714 0.02491574 0.041635707
-0.069887176 -0.010692898 0.059967272 -0.029636046 0.051102024 -0.041684225 -0.030434532 -0.028635798
0.054720823 -0.021545095 0.056679692 0.13976972 0.034970973 -0.042485267 0.02188304 0.022547279
-0.0321058 0.028420689 0.030793022 -0.0073968293 -0.014321753 0.0016519679 -0.0203571 0.017784484
00000000: 3392 f8bc 9b9f 103d f801 013c f437 a5bd
00000010: da5f 08bd 249b 463d 0922 f0bc accd 2cbd
00000020: d7a3 68bd ca30 7c3b c56c e4bc 9911 743d
00000030: c3f3 47bd 4069 623d 30ec fa3c 4481 cb3b
00000040: b361 e8bc 5970 8abc bbcd 7d3d 133d 33bd
00000050: e5e9 43bc 2bc6 73bc 50f9 483d 4257 13bd
00000060: 1c73 43bc eb48 0f3d a98e 163d a4e9 0ebd
00000070: 4d83 6abb f8e7 bd3b 34e1 41bd 7b89 893d
00000080: 2627 5dbc ad6f e13c 5890 1f3c 6165 04bc
00000090: c21e d2bc e899 1c3d 181c cc3c 348a 2a3d
000000a0: 0221 8fbd 4431 2fbc 3ea0 753d 4bc7 f2bc
000000b0: 5b50 513d 14bd 2abd d751 f9bc 9f95 eabc
000000c0: f122 603d 577f b0bc f728 683d cb1f 0f3e
000000d0: b93d 0f3d 0805 2ebd 1044 b33c 12b5 b83c
000000e0: 5f81 03bd 81d2 e83c a641 fc3c 1a61 f2bb
000000f0: c9a5 6abc d886 d83a efc3 a6bc c4b0 913c

model.model.2.weight f4 [32, 64, 1, 1]
-0.04654477 0.071059965 -0.06553996 -0.057055537 0.07578551 -0.054304037 0.0027943435 -0.021737693
-0.01007025 0.04620488 -0.08793201 -0.06085479 -0.07986803 -0.0024744254 -0.06879284 0.032911967
-0.0082790665 0.031089606 -0.008856838 0.0274012 0.0049371575 -0.011868006 -0.06432335 -0.069282755
-0.10020312 -0.097767375 0.077078305 -0.061363187 0.108255096 0.08553054 0.10154941 0.0871786
0.026010782 0.014411217 -0.11839596 -0.09358139 0.095615804 0.06253484 -0.0036067273 0.04797584
0.08917041 -0.06903512 0.101086766 -0.03279877 -0.117524914 0.0065286597 -0.02790392 0.116824076
-0.019996956 -0.061356712 0.026977565 0.08992977 0.07638882 -0.0653986 -0.062447567 0.083011866
-0.10297622 -0.0899432 -0.029360529 -0.091336034 0.09301485 0.019763405 -0.045722652 0.11893696
-0.10296322 -0.049463682 0.084637545 -0.0801542 -0.12039716 -0.076173015 0.11663132 0.06393487
0.04885493 -0.11309834 0.07772489 -0.06264108 -0.10794488 -0.106101304 0.050277997 0.11603193
-0.081484 0.06627141 0.04300748 -0.11431701 -0.04033753 -0.03826043 -0.04214628 -0.07998331
0.0057419143 -0.048484575 0.106592186 0.008193338 0.07924821 -0.090712436 -0.039160762 0.012195593
-0.06534338 -0.0988464 0.036998093 0.09052861 0.11675244 -0.093314976 0.08559114 -0.008460466
0.07018589 0.05797582 -0.009548871 -0.05185622 0.049909107 -0.11227123 -0.0961092 0.06499191
-0.05262209 0.074635915 -0.12914468 0.076066405 0.023421697 -0.1283756 -0.062384967 -0.07950088
0.04293801 -0.08235438 -0.031729527 -0.09857166 -0.0077573364 0.032719716 0.07414987 -0.024671622
0.023713868 0.11599252 -0.07917875 0.40774134 0.2133712 0.016104998 0.11124327 0.08374584
0.19898333 -0.11447184 0.15401207 0.14741315 -0.036184203 0.066730656 -0.06719711 0.07913708
-0.4898458 0.018913288 0.055700492 0.013730214 0.16186237 0.10494541 -0.3089885 -0.02680304
0.28302345 -0.41018277 0.087327324 -0.047247995 -0.049597736 0.08904636 0.09231607 0.117109686
-0.060308833 -0.120153345 -0.008253756 -0.18187016 0.0014345645 0.05855734 0.00089454826 -0.075385794
0.013601996 -0.005776843 0.014702338 -0.1285795 -0.04249111 -0.35480666 -0.4318768 -0.13660933
-0.17752956 -0.11798176 0.15271273 0.30693954 0.004516305 0.04078939 0.064775325 -0.09183343
0.19520976 -0.09329179 -0.018391617 -0.06775954 0.103197604 -0.031359065 0.43411672 -0.069363125
-0.083926454 -0.08451978 -0.07813576 -0.023583032 -0.06923164 0.121534795 -0.114490315 -0.01668664
0.005130897 0.0059293443 0.049073663 -0.041513212 0.11127083 0.030865712 0.052559268 0.12696692
0.1072219 -0.035149373 -0.088971205 0.104110435 0.05375833 -0.097820126 0.041471798 0.02703792
-0.067950316 0.10118949 0.079991244 -0.029045738 -0.11260091 0.04492032 0.10444429 0.01874893
0.019961273 0.122822136 -0.073616855 -0.0024687897 0.059548758 -0.101996474 -0.10642125 0.06735421
-0.08123374 0.09423267 -0.042386305 -0.027867997 -0.034577478 0.0018834708 0.11039566 -0.06662941
0.101823 0.15456632 0.006718941 -0.19448471 -0.025297288 -0.01616302 -0.058714196 0.07844349
0.12321831 -0.0576442 0.09060078 0.09779364 0.06857907 0.028180718 -0.050060846 0.03696327
00000000: bba5 3ebd e387 913d d139 86bd 11b3 69bd
00000010: 6f35 9b3d e96d 5ebd 4e21 373b 3f13 b2bc
00000020: b1fd 24bc 5441 3d3d b315 b4bd df42 79bd
00000030: da91 a3bd f829 22bb 43e3 8cbd b3ce 063d
00000040: eca4 07bc a1af fe3c 451c 11bc 7b78 e03c
00000050: e1c7 a13b 0672 42bc f6bb 83bd 1ee4 8dbd
00000060: 4b37 cdbd 433a c8bd 3bdb 9d3d f757 7bbd
00000070: d9b4 dd3d a32a af3d 23f9 cf3d b28a b23d
00000080: 9014 d53c 061d 6c3c 9579 f2bd 9aa7 bfbd
00000090: 38d2 c33d 4412 803d d85e 6cbb 5082 443d
000000a0: fa9e b63d 4962 8dbd 9406 cf3d 0158 06bd
000000b0: e7b0 f0bd 5eee d53b c396 e4bc 7641 ef3d
000000c0: a8d0 a3bc 2d51 7bbd 0e00 dd3c 192d b83d
000000d0: be71 9c3d b4ef 85bd 05c9 7fbd 2002 aa3d
000000e0: 32e5 d2bd 2434 b8bd 7e85 f0bc 630e bbbd
000000f0: 927e be3d dde6 a13c ad47 3bbd 3995 f33d
00000100: 61de d2bd 6e9a 4abd 7356 ad3d e327 a4bd
00000110: c992 f6bd 9900 9cbd 67dc ee3d 49f0 823d
00000120: 1b1c 483d 1aa0 e7bd 3a2e 9f3d f749 80bd
00000130: 3512 ddbd a44b d9bd 4df0 4d3d 26a2 ed3d
00000140: 15e1 a6bd 4eb9 873d 9d28 303d 091f eabd
00000150: f738 25bd f8b6 1cbd 94a1 2cbd 4ace a3bd
00000160: ab26 bc3b c397 46bd 014d da3d 5a3d 063c
00000170: e34c a23d 71c7 b9bd 0967 20bd 06d0 473c
00000180: c0d2 85bd fb6f cabd 508b 173d 1067 b93d
00000190: e71b ef3d ec1b bfbd 684a af3d c49d 0abc
000001a0: 9fbd 8f3d 0e78 6d3d de72 1cbc 3067 54bd
000001b0: 7e6d 4c3d 75ee e5bd e6d4 c4bd 7a1a 853d
000001c0: 438a 57bd b7da 983d 813e 04be b4c8 9b3d
000001d0: dcde bf3c e574 03be 6187 7fbd 5bd1 a2bd
000001e0: c4df 2f3d 6aa9 a8bd d2f6 01bd f0df c9bd
000001f0: 4131 febb 1c05 063d e3db 973d 241c cabc
00000200: 9643 c23c 7c8d ed3d 7828 a2bd 79c3 d03e
00000210: fb7d 5a3e a1ee 833c 83d3 e33d f082 ab3d
00000220: 49c2 4b3e 3670 eabd 57b5 1d3e 79f3 163e
00000230: e335 14bd 15aa 883d a39e 89bd 9f12 a23d
00000240: 12cd fabe 0af0 9a3c 3326 643d b1f4 603c
00000250: 40bf 253e 9eed d63d be33 9ebe 0d92 dbbc
00000260: 73e8 903e 7a03 d2be abd8 b23d 1d87 41bd
00000270: ff26 4bbd f05d b63d 3510 bd3d 34d7 ef3d
00000280: 6506 77bd f512 f6bd c33a 07bc 2c3c 3abe
00000290: ff07 bc3a d2d9 6f3d 1e80 6a3a de63 9abd
000002a0: e8da 5e3c ac4b bdbb 13e2 703c 58aa 03be
000002b0: 280b 2ebd 38a9 b5be f51e ddbe 51e3 0bbe
000002c0: 4fca 35be 6ca0 f1bd ba60 1c3e 2e27 9d3e
000002d0: 83fd 933b c712 273d eda8 843d 2a13 bcbd
000002e0: 11e5 473e c40f bfbd 04aa 96bc 84c5 8abd
000002f0: 4459 d33d 5d72 00bd 8c44 de3e 410e 8ebd
00000300: a2e1 abbd b518 adbd a405 a0bd 3431 c1bc
00000310: 51c9 8dbd 3ce7 f83d e679 eabd 6cb2 88bc
00000320: 1521 a83b f24a c23b 7701 493d c209 2abd
00000330: f6e1 e33d 17da fc3c 6348 573d 9e03 023e
00000340: 2897 db3d caf8 0fbd 8936 b6bd da37 d53d
00000350: b231 5c3d eb55 c8bd 55de 293d a17e dd3c
00000360: 8929 8bbd 6f3c cf3d 73d2 a33d 54f1 edbc
00000370: 4e9b e6bd 5ffe 373d e3e6 d53d 5b97 993c
00000380: d385 a33c 2c8a fb3d 6fc4 96bd 6bcb 21bb
00000390: 66e9 733d 87e3 d0bd 62f3 d9bd 01f1 893d
000003a0: e05d a6bd 0ffd c03d 439d 2dbd 6d4b e4bc
000003b0: 1da1 0dbd cbde f63a 1f17 e23d 0075 88bd
000003c0: 9488 d03d a246 1e3e 902a dc3b 0027 47be
000003d0: 423c cfbc 4f68 84bc 4c7e 70bd fba6 a03d
000003e0: e259 fc3d 531c 6cbd e78c b93d 0848 c83d
000003f0: 2f73 8c3d 40db e63c 9a0c 4dbd cc66 173d

model.model.2.bias f4 [32]
-0.10269997 -0.04807136 0.047871027 0.04248953 0.018271921 -0.0062800534 -0.1091041 -0.013731718
-0.012711777 -0.028368035 -0.009343835 0.0060318033 -0.110841036 0.037125852 -0.046128254 0.08092914
-0.09182598 -0.08175041 0.1105391 0.09657586 0.068554424 0.104435146 0.1092393 0.1133797
-0.040023636 0.04684648 -0.08234915 -0.02326381 -0.026021603 0.015282748 0.042848658 -0.021668728
00000000: 5d54 d2bd 79e6 44bd 6914 443d 8009 2e3d
00000010: ffae 953c e8c8 cdbb f871 dfbd 00fb 60bc
00000020: 0f45 50bc 1564 e8bc e216 19bc 6fa6 c53b
00000030: a000 e3bd 4711 183d fbf0 3cbd 2dbe a53d
00000040: 420f bcbd c26c a7bd 5362 e23d 91c9 c53d
00000050: 4366 8c3d 18e2 d53d dbb8 df3d 9e33 e83d
00000060: d3ef 23bd 18e2 3f3d aca6 a8bd bf93 bebc
00000070: 422b d5bc 7e64 7a3c 1382 2f3d 9e82 b1bc

model.model.4.weight f4 [3, 32, 5, 5]
0.00044907755 -0.017553238 0.031038657 0.020045323 0.02847332 0.014131575 0.018594977 -0.00025869487
-0.011899924 -0.011167461 0.037788335 0.026362168 0.009958676 0.0107960105 -0.025590872 -0.018719872
0.040583953 -0.028130682 0.0052822144 -0.004468935 0.031729005 0.009832663 -0.017686516 0.011790522
0.014987927 0.019620242 0.027327219 0.0012061766 -0.025669083 0.0015858877 0.0072928756 0.0023259723
-0.008907113 -0.027921706 -0.011590202 0.035841547 0.0040900423 -0.0019594105 -0.023266373 -0.0032312628
0.006624281 -0.0030242852 0.032020114 -0.012733047 -0.020471055 0.012038816 0.03632238 -0.006669332
0.018156225 -0.01285792 -0.03347554 0.056155678 0.024842083 0.029285425 -0.030537445 0.041953795
-0.07361468 -0.082139395 -0.026827807 0.03215935 0.013663532 -0.07204222 0.21102831 -0.047577184
-0.0080276625 -0.007992345 -0.09102194 0.13627958 -0.05536186 -0.014254324 0.061473846 -0.058135934
-0.044892814 -0.0033458371 0.025168635 0.021461133 0.0014684853 0.014273503 0.013006742 -0.024540268
-0.042326644 -0.0118539855 0.043400727 0.018364018 0.023524057 0.0022574007 -0.018857438 0.04780244
0.03735316 -0.03223935 -0.023870595 0.024069265 0.013902989 0.015390001 0.026315864 0.01640066
-0.013234878 -0.0018785405 0.019665593 0.02209603 0.011761314 0.045682594 0.018941265 -0.0029999441
0.028402789 0.018750098 0.00033622165 0.010252525 -0.019865409 -0.015093244 0.039128255 0.033498965
0.03846501 0.04411554 -0.0025026265 -0.0016884095 0.03270597 -0.011402906 0.024796441 -0.021880599
-0.015583373 0.028623683 0.029236594 -0.009081004 -0.014850411 0.0059015686 -0.017668433 -0.0059152474
-0.007752963 0.0136335185 0.0069904923 0.005699484 0.0050287065 0.016066995 -0.02772463 -0.035919543
0.018976618 -0.022691669 -0.0018039787 -0.028744807 -0.045352038 0.022687364 0.025569344 -0.009891446
-0.00041053598 0.023549149 -0.020626718 -0.023563128 0.004218384 -0.029976165 0.01424015 0.010083803
-0.013156179 0.039012473 0.030821284 0.004299953 -0.016078858 0.003073147 0.020621495 0.015817806
0.01459976 -0.015133553 -0.016236488 -0.0018078119 0.016118942 -0.010629806 0.009832972 0.024816778
0.002726397 0.018215707 -0.001838946 0.02111737 0.040992953 -0.0018865815 0.006269365 -0.0007144273
-0.024344584 0.0047439714 0.032797065 0.041008953 -0.0045949244 -0.08068477 -0.027037954 0.05156626
0.07799803 0.0052486556 -0.03813781 0.076976046 0.1318398 0.0725394 -0.0660421 -0.078895874
0.04049045 0.0579581 -0.018569846 -0.028116457 -0.050090242 -0.032251757 -0.021224786 -0.05679251
0.031454597 -0.00053275644 -0.0022904824 -0.035701044 -0.0246703 0.019183364 0.03285327 -0.020856507
0.018989367 0.019381858 -0.015332693 -0.0058784555 -0.013635688 -0.010985118 0.00802354 0.025221324
-0.018730778 -0.03736584 0.0063708755 -0.012285304 0.009956042 -0.034530953 -0.0014163399 -0.025928453
0.03248499 -0.017869648 0.008122221 0.033654206 -0.0004228913 -0.018759914 -0.026220646 -0.010992501
-0.014967329 0.019032232 -0.015003663 -0.0050099487 -0.008870125 -0.027483638 -0.018744508 -0.0057051233
-0.003145677 0.0020920318 0.003876174 0.029886063 0.0066974885 -0.002666087 0.037692964 0.0036214625
0.028156895 0.017701747 0.023506958 -0.008963642 -0.006388901 0.022025263 0.03409124 -0.0054653836
00000000: 2b72 eb39 cfcb 8fbc c844 fe3c 1736 a43c
00000010: e140 e93c 1f88 673c 7e54 983c 70a1 87b9
00000020: e6f7 42bc baf7 36bc f1c7 1a3d 79f5 d73c
00000030: b729 233c c0e1 303c f3a3 d1bc 6b5a 99bc
00000040: 5c3b 263d 5172 e6bc 6d16 ad3b 2570 92bb
00000050: 46f6 013d 2e19 213c 50e3 90bc 092d 413c
00000060: ec8f 753c a1ba a03c 55dd df3c 9218 9e3a
00000070: f847 d2bc 90dd cf3a 13f9 ee3b 576f 183b
00000080: 24ef 11bc 10bc e4bc d5e4 3dbc 96ce 123d
00000090: c305 863b 7469 00bb 1f99 bebc 98c3 53bb
000000a0: 7f10 d93b 1633 46bb 8627 033d 459e 50bc
000000b0: eab2 a7bc 743e 453c c7c6 143d 698a dabb
000000c0: 5dbc 943c 06aa 52bc a61d 09bd 7f03 663d
000000d0: a081 cb3c fde7 ef3c aa29 fabc bed7 2b3d
000000e0: 4bc3 96bd b338 a8bd fdc5 dbbc 86b9 033d
000000f0: 02dd 5f3c df8a 93bd ce17 583e 4be0 42bd
00000100: 7586 03bc 53f2 02bc b669 babd e08c 0b3e
00000110: 1ec3 62bd f88a 69bc 00cc 7b3d f21f 6ebd
00000120: 87e1 37bd d545 5bbb 742e ce3c 42cf af3c
00000130: 317a c03a 69db 693c 3b1a 553c ac08 c9bc
00000140: b45e 2dbd 3837 42bc f6c4 313d 2370 963c
00000150: 86b5 c03c e6f0 133b ea7a 9abc 7ecc 433d
00000160: a1ff 183d 690d 04bd 448c c3bc e82c c53c
00000170: 5dc9 633c 5826 7c3c 5e94 d73c ad5a 863c
00000180: 1ad7 58bc 5c39 f6ba bd19 a13c bc02 b53c
00000190: 87b2 403c ac1d 3b3d b62a 9b3c b69a 44bb
000001a0: f7ac e83c ce99 993c e846 b039 35fa 273c
000001b0: c8bc a2bc a749 77bc f344 203d 3636 093d
000001c0: 7c8d 1d3d 7fb2 343d 1b03 24bb 9f4d ddba
000001d0: b2f6 053d 41d3 3abc e821 cb3c f13e b3bc
000001e0: 6751 7fbc 377c ea3c 9581 ef3c 7ec8 14bc
000001f0: 234f 73bc f261 c13b 64bd 90bc b1d4 c1bb
00000200: 910c febb 1f5f 5f3c 8010 e53b bdc2 ba3b
00000210: d9c7 a43b ee9e 833c c31e e3bc 5f20 13bd
00000220: da74 9b3c e1e3 b9bc 7b73 ecba 3b7a ebbc
00000230: 0fc3 39bd dada b93c cd76 d13c bb0f 22bc
00000240: 353d d7b9 25ea c03c 5df9 a8bc 7607 c1bc
00000250: 5f3a 8a3b 9390 f5bc 854f 693c 8936 253c
00000260: 048d 57bc 8bcb 1f3d eb7c fc3c 9fe6 8c3b
00000270: cfb7 83bc da66 493b 69ee a83c 5894 813c
00000280: d533 6f3c b9f2 77bc 6202 85bc 1af4 ecba
00000290: df0b 843c a328 2ebc 791a 213c 8e4c cb3c
000002a0: 5aad 323b 1b39 953c ca08 f1ba 56fe ac3c
000002b0: 3ae8 273d 2c47 f7ba 3f6f cd3b 6848 3bba
000002c0: 4b6e c7bc 5173 9b3b 3756 063d 01f9 273d
000002d0: 0591 96bb 0f3e a5bd b37e ddbc 2537 533d
000002e0: 6ebd 9f3d eafc ab3b 6436 1cbd 9ea5 9d3d
000002f0: 0301 073e 898f 943d 1541 87bd 2994 a1bd
00000300: 50d9 253d 7965 6d3d ca1f 98bc 7c54 e6bc
00000310: 6d2b 4dbd 6b1a 04bd 9adf adbc 439f 68bd
00000320: 89d6 003d aea8 0bba eb1b 16bb 423b 12bd
00000330: 5e19 cabc 6e26 9d3c 2791 063d 44db aabc
00000340: 978f 9b3c b4c6 9e3c fa35 7bbc 0fa0 c0bb
00000350: 3968 5fbc edfa 33bc 2a75 033c f39c ce3c
00000360: 4a71 99bc ec0c 19bd c7c2 d03b 4d48 49bc
00000370: ab1e 233c 5470 0dbd 7ba4 b9ba e867 d4bc
00000380: fb0e 053d 5e63 92bc 1013 053c fed8 093d
00000390: 82b7 ddb9 64ae 99bc aecc d6bc e419 34bc
000003a0: 8739 75bc 7ce9 9b3c ecd1 75bc 7f2a a4bb
000003b0: 0054 11bc 5e25 e1bc 158e 99bc 0bf2 babb
000003c0: b427 4ebb 781a 093b 6907 7e3b 9ed3 f43c
000003d0: 9b76 db3b 84b9 2ebb f063 1a3d 0f56 6d3b
000003e0: 4aa9 e63c 4103 913c aa91 c03c 3ddc 12bc
000003f0: fc59 d1bb 536e b43c 42a3 0b3d f616 b3bb

model.model.4.bias f4 [3]
-0.016718717 0.040705774 0.024856826
00000000: b1f5 88bc 19bb 263d 8ba0 cb3c

exp_avg f4 [64, 3, 9, 9]
6e-45 6e-45 6e-45 6e-45 6e-45 6e-45 6e-45 6e-45
6e-45 6e-45 6e-45 6e-45 6e-45 6e-45 6e-45 6e-45
6e-45 6e-45 6e-45 6e-45 6e-45 6e-45 6e-45 6e-45
6e-45 6e-45 6e-45 6e-45 6e-45 6e-45 6e-45 6e-45
6e-45 6e-45 6e-45 6e-45 6e-45 6e-45 6e-45 6e-45
6e-45 6e-45 6e-45 6e-45 6e-45 6e-45 6e-45 6e-45
6e-45 6e-45 6e-45 6e-45 6e-45 6e-45 6e-45 6e-45
6e-45 6e-45 6e-45 6e-45 6e-45 6e-45 6e-45 6e-45
6e-45 6e-45 6e-45 6e-45 6e-45 6e-45 6e-45 6e-45
6e-45 6e-45 6e-45 6e-45 6e-45 6e-45 6e-45 6e-45
6e-45 6e-45 6e-45 6e-45 6e-45 6e-45 6e-45 6e-45
6e-45 6e-45 6e-45 6e-45 6e-45 6e-45 6e-45 6e-45
6e-45 6e-45 6e-45 6e-45 6e-45 6e-45 6e-45 6e-45
6e-45 6e-45 6e-45 6e-45 6e-45 6e-45 6e-45 6e-45
6e-45 6e-45 6e-45 6e-45 6e-45 6e-45 6e-45 6e-45
6e-45 6e-45 6e-45 6e-45 6e-45 6e-45 6e-45 6e-45
6e-45 6e-45 6e-45 6e-45 6e-45 6e-45 6e-45 6e-45
6e-45 6e-45 6e-45 6e-45 6e-45 6e-45 6e-45 6e-45
6e-45 6e-45 6e-45 6e-45 6e-45 6e-45 6e-45 6e-45
6e-45 6e-45 6e-45 6e-45 6e-45 6e-45 6e-45 6e-45
6e-45 6e-45 6e-45 6e-45 6e-45 6e-45 6e-45 6e-45
6e-45 6e-45 6e-45 6e-45 6e-45 6e-45 6e-45 6e-45
6e-45 6e-45 6e-45 6e-45 6e-45 6e-45 6e-45 6e-45
6e-45 6e-45 6e-45 6e-45 6e-45 6e-45 6e-45 6e-45
6e-45 6e-45 6e-45 6e-45 6e-45 6e-45 6e-45 6e-45
6e-45 6e-45 6e-45 6e-45 6e-45 6e-45 6e-45 6e-45
6e-45 6e-45 6e-45 6e-45 6e-45 6e-45 6e-45 6e-45
6e-45 6e-45 6e-45 6e-45 6e-45 6e-45 6e-45 6e-45
6e-45 6e-45 6e-45 6e-45 6e-45 6e-45 6e-45 6e-45
6e-45 6e-45 6e-45 6e-45 6e-45 6e-45 6e-45 6e-45
6e-45 6e-45 6e-45 -1.8416817e-09 -2.7675475e-09 -2.5533218e-09 -1.4957374e-09 -6.0563987e-10
1.4098882e-09 1.310349e-09 6.75275e-10 1.1865783e-09 -2.3407731e-09 -2.5471467e-09 -1.696958e-09 -2.8452743e-10
00000000: 0400 0000 0400 0000 0400 0000 0400 0000
00000010: 0400 0000 0400 0000 0400 0000 0400 0000
00000020: 0400 0000 0400 0000 0400 0000 0400 0000
00000030: 0400 0000 0400 0000 0400 0000 0400 0000
00000040: 0400 0000 0400 0000 0400 0000 0400 0000
00000050: 0400 0000 0400 0000 0400 0000 0400 0000
00000060: 0400 0000 0400 0000 0400 0000 0400 0000
00000070: 0400 0000 0400 0000 0400 0000 0400 0000
00000080: 0400 0000 0400 0000 0400 0000 0400 0000
00000090: 0400 0000 0400 0000 0400 0000 0400 0000
000000a0: 0400 0000 0400 0000 0400 0000 0400 0000
000000b0: 0400 0000 0400 0000 0400 0000 0400 0000
000000c0: 0400 0000 0400 0000 0400 0000 0400 0000
000000d0: 0400 0000 0400 0000 0400 0000 0400 0000
000000e0: 0400 0000 0400 0000 0400 0000 0400 0000
000000f0: 0400 0000 0400 0000 0400 0000 0400 0000
00000100: 0400 0000 0400 0000 0400 0000 0400 0000
00000110: 0400 0000 0400 0000 0400 0000 0400 0000
00000120: 0400 0000 0400 0000 0400 0000 0400 0000
00000130: 0400 0000 0400 0000 0400 0000 0400 0000
00000140: 0400 0000 0400 0000 0400 0000 0400 0000
00000150: 0400 0000 0400 0000 0400 0000 0400 0000
00000160: 0400 0000 0400 0000 0400 0000 0400 0000
00000170: 0400 0000 0400 0000 0400 0000 0400 0000
00000180: 0400 0000 0400 0000 0400 0000 0400 0000
00000190: 0400 0000 0400 0000 0400 0000 0400 0000
000001a0: 0400 0000 0400 0000 0400 0000 0400 0000
000001b0: 0400 0000 0400 0000 0400 0000 0400 0000
000001c0: 0400 0000 0400 0000 0400 0000 0400 0000
000001d0: 0400 0000 0400 0000 0400 0000 0400 0000
000001e0: 0400 0000 0400 0000 0400 0000 0400 0000
000001f0: 0400 0000 0400 0000 0400 0000 0400 0000
00000200: 0400 0000 0400 0000 0400 0000 0400 0000
00000210: 0400 0000 0400 0000 0400 0000 0400 0000
00000220: 0400 0000 0400 0000 0400 0000 0400 0000
00000230: 0400 0000 0400 0000 0400 0000 0400 0000
00000240: 0400 0000 0400 0000 0400 0000 0400 0000
00000250: 0400 0000 0400 0000 0400 0000 0400 0000
00000260: 0400 0000 0400 0000 0400 0000 0400 0000
00000270: 0400 0000 0400 0000 0400 0000 0400 0000
00000280: 0400 0000 0400 0000 0400 0000 0400 0000
00000290: 0400 0000 0400 0000 0400 0000 0400 0000
000002a0: 0400 0000 0400 0000 0400 0000 0400 0000
000002b0: 0400 0000 0400 0000 0400 0000 0400 0000
000002c0: 0400 0000 0400 0000 0400 0000 0400 0000
000002d0: 0400 0000 0400 0000 0400 0000 0400 0000
000002e0: 0400 0000 0400 0000 0400 0000 0400 0000
000002f0: 0400 0000 0400 0000 0400 0000 0400 0000
00000300: 0400 0000 0400 0000 0400 0000 0400 0000
00000310: 0400 0000 0400 0000 0400 0000 0400 0000
00000320: 0400 0000 0400 0000 0400 0000 0400 0000
00000330: 0400 0000 0400 0000 0400 0000 0400 0000
00000340: 0400 0000 0400 0000 0400 0000 0400 0000
00000350: 0400 0000 0400 0000 0400 0000 0400 0000
00000360: 0400 0000 0400 0000 0400 0000 0400 0000
00000370: 0400 0000 0400 0000 0400 0000 0400 0000
00000380: 0400 0000 0400 0000 0400 0000 0400 0000
00000390: 0400 0000 0400 0000 0400 0000 0400 0000
000003a0: 0400 0000 0400 0000 0400 0000 0400 0000
000003b0: 0400 0000 0400 0000 0400 0000 0400 0000
000003c0: 0400 0000 0400 0000 0400 0000 6a1e fdb0
000003d0: 362f 3eb1 8376 2fb1 9592 cdb0 1e7a 26b0
000003e0: 08c6 c130 cf17 b430 419e 3930 0315 a330
000003f0: 51db 20b1 e109 2fb1 673a e9b0 ad6b 9caf

exp_avg_sq f4 [64, 3, 9, 9]
4.0692194e-10 4.289091e-10 4.640451e-10 5.0771076e-10 5.463932e-10 5.6999166e-10 5.770967e-10 5.714588e-10
5.5741095e-10 4.100936e-10 4.3411352e-10 4.75193e-10 5.282109e-10 5.754174e-10 6.021154e-10 6.0651867e-10
5.956478e-10 5.769552e-10 4.1558315e-10 4.4191498e-10 4.885693e-10 5.4991467e-10 6.044605e-10 6.3410616e-10
6.3701444e-10 6.22298e-10 5.9924815e-10 4.1892095e-10 4.4630943e-10 4.9576393e-10 5.612177e-10 6.1994904e-10
6.5384004e-10 6.604586e-10 6.467851e-10 6.2116606e-10 4.159332e-10 4.4205298e-10 4.888094e-10 5.5001215e-10
6.062447e-10 6.441666e-10 6.601031e-10 6.5418154e-10 6.305452e-10 4.1719883e-10 4.4139573e-10 4.8143173e-10
5.314248e-10 5.7838434e-10 6.161633e-10 6.4049593e-10 6.447393e-10 6.277068e-10 4.229435e-10 4.458516e-10
4.785122e-10 5.1609617e-10 5.516824e-10 5.8444055e-10 6.1061795e-10 6.2127153e-10 6.118941e-10 4.2978188e-10
4.514551e-10 4.7819987e-10 5.0678883e-10 5.337612e-10 5.600791e-10 5.829275e-10 5.948396e-10 5.908113e-10
4.3228982e-10 4.5179377e-10 4.7411824e-10 4.974574e-10 5.19365e-10 5.405903e-10 5.591319e-10 5.6993865e-10
5.6881055e-10 8.447457e-10 8.860093e-10 9.442843e-10 1.0122077e-09 1.0683229e-09 1.0987835e-09 1.1022124e-09
1.0843306e-09 1.050705e-09 8.5814017e-10 9.0365343e-10 9.710136e-10 1.0521103e-09 1.120041e-09 1.1548567e-09
1.1542441e-09 1.1281343e-09 1.0866998e-09 8.740294e-10 9.2391916e-10 9.994068e-10 1.0918795e-09 1.1699957e-09
1.2095436e-09 1.2073994e-09 1.1757088e-09 1.1271949e-09 8.836087e-10 9.354874e-10 1.0147995e-09 1.1126794e-09
1.196892e-09 1.2435637e-09 1.2480906e-09 1.2186676e-09 1.1662524e-09 8.7671637e-10 9.2654134e-10 1.0016128e-09
1.0931315e-09 1.1739246e-09 1.2270843e-09 1.246157e-09 1.2291443e-09 1.1803364e-09 8.742392e-10 9.2086533e-10
9.860303e-10 1.0613191e-09 1.1284673e-09 1.1809708e-09 1.2122098e-09 1.2107525e-09 1.1727597e-09 8.767115e-10
9.210801e-10 9.755898e-10 1.0328999e-09 1.0827674e-09 1.1265604e-09 1.1595553e-09 1.1676742e-09 1.1421063e-09
8.7955515e-10 9.217077e-10 9.676786e-10 1.0119607e-09 1.0485475e-09 1.0815702e-09 1.1086302e-09 1.1185268e-09
1.1018005e-09 8.7391205e-10 9.1215074e-10 9.514652e-10 9.88184e-10 1.0172493e-09 1.0423469e-09 1.0626372e-09
1.0708805e-09 1.0591509e-09 5.740137e-10 6.0573124e-10 6.5257466e-10 7.0922157e-10 7.5809337e-10 7.860278e-10
7.906192e-10 7.7721657e-10 7.514581e-10 5.841775e-10 6.1959843e-10 6.7441575e-10 7.4285483e-10 8.02391e-10
8.3401885e-10 8.34354e-10 8.1298185e-10 7.800626e-10 5.965716e-10 6.3589656e-10 6.980339e-10 7.768336e-10
8.4559526e-10 8.811259e-10 8.79395e-10 8.524717e-10 8.1305435e-10 6.040806e-10 6.4529715e-10 7.1099393e-10
7.946343e-10 8.6852375e-10 9.0993524e-10 9.1383456e-10 8.8880514e-10 8.458301e-10 5.9938e-10 6.390734e-10
7.0109235e-10 7.785263e-10 8.4827473e-10 8.946928e-10 9.1161223e-10 8.9803975e-10 8.5838564e-10 5.9901084e-10
6.362734e-10 6.8956496e-10 7.518943e-10 8.082811e-10 8.532296e-10 8.808609e-10 8.814077e-10 8.515288e-10
6.0321864e-10 6.387349e-10 6.825686e-10 7.285821e-10 7.690796e-10 8.0573487e-10 8.3447405e-10 8.432349e-10
8.2430496e-10 6.0766964e-10 6.411268e-10 6.7728395e-10 7.117597e-10 7.405904e-10 7.676147e-10 7.906323e-10
8.0038837e-10 7.889436e-10 6.052085e-10 6.3489136e-10 6.6502e-10 6.9294437e-10 7.154279e-10 7.3558964e-10
7.52383e-10 7.6019835e-10 7.527358e-10 1.5258705e-09 1.5452591e-09 1.5571561e-09 1.5575561e-09 1.5451056e-09
1.5102463e-09 1.4595162e-09 1.4084404e-09 1.3580511e-09 1.5396404e-09 1.5682907e-09 1.5903536e-09 1.5966756e-09
00000000: 2cb5 df2f 97cb eb2f 8b1c ff2f f88e 0b30
00000010: 0131 1630 99ad 1c30 92a1 1e30 d714 1d30
00000020: 4f38 1930 8b73 e12f 0ca8 ee2f bc9e 0230
00000030: 8a31 1130 662b 1e30 1b82 2530 f5b7 2630
00000040: fdba 2330 9d97 1e30 2178 e42f 01f2 f22f
00000050: 024c 0630 ce28 1730 2027 2630 414d 2e30
00000060: e819 2f30 540e 2b30 57b8 2430 e24d e62f
00000070: 785c f52f 4946 0830 2f44 1a30 0969 2a30
00000080: e7b9 3330 a48b 3530 75c9 3130 adbe 2a30
00000090: 65a9 e42f 6d05 f32f e75c 0630 aa2f 1730
000000a0: aea4 2630 3211 3130 a072 3530 efd1 3330
000000b0: ad52 2d30 845b e52f eda8 f22f bf55 0430
000000c0: b213 1230 2efc 1e30 a35e 2930 e50e 3030
000000d0: 7f39 3130 f08a 2c30 0284 e82f 091c f52f
000000e0: 4d88 0330 0add 0d30 33a5 1730 59a6 2030
000000f0: 6bd8 2730 19c6 2a30 3832 2830 6c46 ec2f
00000100: a830 f82f 5372 0330 184e 0b30 1bb8 1230
00000110: 10f4 1930 e03b 2030 1e82 2330 a666 2230
00000120: 62a7 ed2f 5260 f82f 1b53 0230 74bd 0830
00000130: 10c3 0e30 a998 1430 69b1 1930 dea9 1c30
00000140: 7c5a 1c30 b233 6830 5d8b 7330 0dc8 8130
00000150: e41d 8b30 45d4 9230 0204 9730 a77c 9730
00000160: 7e07 9530 6568 9030 3fe2 6b30 f564 7830
00000170: 8174 8530 d799 9030 f0ef 9930 e8b8 9e30
00000180: 5ba3 9e30 b20c 9b30 da5a 9530 5a40 7030
00000190: 08f7 7d30 805b 8930 1811 9630 90cd a030
000001a0: 083d a630 97f1 a530 9396 a130 a5eb 9a30
000001b0: 6fe2 7230 8992 8030 1579 8b30 edec 9830
000001c0: e57f a430 02ea aa30 4989 ab30 0e7e a730
000001d0: dc49 a030 6efd 7030 8daf 7e30 1ea9 8930
000001e0: 253d 9630 cd57 a130 31a6 a830 4045 ab30
000001f0: acee a830 6539 a230 1d4f 7030 2320 7d30
00000200: db84 8730 d9dd 9130 6a18 9b30 b74f a230
00000210: d79a a630 9167 a630 d02e a130 16fd 7030
00000220: 402f 7d30 8415 8630 eff5 8d30 7ed0 9430
00000230: 52d5 9a30 3a5e 9f30 e27b a030 4bf8 9c30
00000240: 31c5 7130 6a5b 7d30 2aff 8430 3415 8b30
00000250: 7c1c 9030 5ea6 9430 755e 9830 aaba 9930
00000260: 296e 9730 1838 7030 e7ba 7a30 b5c4 8230
00000270: a2d0 8730 47cf 8b30 5242 8f30 390c 9230
00000280: 422e 9330 8f91 9130 a0c8 1d30 8c80 2630
00000290: dc60 3330 08f3 4230 1462 5030 ca0f 5830
000002a0: e152 5930 c1a3 5530 2a8f 4e30 d693 2030
000002b0: 5d50 2a30 ca61 3930 c331 4c30 3f8f 5c30
000002c0: dc40 6530 7158 6530 8378 5f30 076c 5630
000002d0: fffb 2330 3ecb 2e30 c5df 3f30 ce88 5530
000002e0: 7a6f 6830 b933 7230 ecb9 7130 5d53 6a30
000002f0: 9d7d 5f30 650c 2630 c060 3130 c06f 4330
00000300: 6b6d 5a30 edbc 6e30 001f 7a30 6431 7b30
00000310: 1a50 7430 0080 6830 9ec1 2430 cbaa 2f30
00000320: fdb6 4030 ebff 5530 072c 6930 69ee 7530
00000330: 0295 7a30 eed9 7630 85f3 6b30 a4a7 2430
00000340: c3e5 2e30 d28b 3d30 dcad 4e30 ba2d 5e30
00000350: b288 6a30 1321 7230 8e47 7230 0311 6a30
00000360: bdcf 2530 f992 2f30 7f9f 3b30 6845 4830
00000370: 2a67 5330 8d7a 5d30 e460 6530 62c9 6730
00000380: 4e95 6230 f308 2730 4a3b 3030 9f2b 3a30
00000390: a3a5 4330 6b92 4b30 1500 5330 cd53 5930
000003a0: 5302 5c30 f8dc 5830 c35b 2630 8284 2e30
000003b0: 9fcc 3630 a079 3e30 c3a7 4430 8532 4a30
000003c0: 3fd0 4e30 34f6 5030 13e9 4e30 ccb6 d130
000003d0: f960 d430 8f03 d630 a211 d630 925b d430
000003e0: 1191 cf30 2998 c830 1793 c130 2da6 ba30
000003f0: 489b d330 538b d730 9893 da30 0772 db30

exp_avg f4 [64]
6e-45 6.091623e-08 -1.1177947e-06 -1.8729997e-06 -1.2103059e-06 -5.685089e-06 1.1187244e-09 -9.5315045e-06
-8.883939e-08 -3.1851597e-09 -1.2072842e-06 -1.3211671e-05 6e-45 -5.0238764e-06 3.6308208e-08 -3.3695666e-09
-1.1291241e-05 -1.3399037e-09 -6.356437e-06 6e-45 2.2544306e-07 3.0758762e-09 -7.013972e-06 -9.451408e-11
9.06425e-06 -4.4854998e-05 1.6081339e-07 1.580434e-09 -1.9063907e-06 -2.6108482e-08 -7.8226e-06 1.24132985e-05
-4.9494847e-10 -1.2483078e-05 2.6910027e-06 -6.9654534e-06 -4.638996e-06 -2.4995816e-07 -7.97333e-06 -3.4990576e-06
6e-45 -5.6909304e-09 1.6289188e-07 -7.579487e-06 -8.801981e-06 -5.484087e-06 -8.6932505e-06 -6.317866e-07
-1.1822184e-05 4.259156e-07 -4.23696e-06 -6.013841e-07 1.8817834e-08 2.9825886e-10 3.3229558e-06 5.3194118e-08
-1.7533978e-06 7.40889e-07 -3.2844505e-06 -1.5512109e-09 -8.669065e-06 8.907782e-08 -1.5973082e-07 -1.1583386e-05
00000000: 0400 0000 0dd1 8233 2207 96b5 c863 fbb5
00000010: cb71 a2b5 8bc2 beb6 9ec1 9930 80e9 1fb7
00000020: f9c7 beb3 ece1 5ab1 f809 a2b5 b2a7 5db7
00000030: 0400 0000 c592 a8b6 4cf1 1b33 0b8e 67b1
00000040: 836f 3db7 ac27 b8b0 6149 d5b6 0400 0000
00000050: 5111 7234 635f 5331 9059 ebb6 b2d6 cfae
00000060: a812 1837 b022 3cb8 0cac 2c34 9436 d930
00000070: 16df ffb5 2945 e0b2 d03d 03b7 b642 5037
00000080: e70c 08b0 696e 51b7 1397 3436 cab8 e9b6
00000090: aca8 9bb6 fd31 86b4 31c5 05b7 5ad1 6ab6
000000a0: 0400 0000 f489 c3b1 61e7 2e34 4c53 feb6
000000b0: 38ac 13b7 f303 b8b6 3ad9 11b7 0b98 29b5
000000c0: e557 46b7 65a9 e434 362b 8eb6 cd6e 21b5
000000d0: dba4 a132 34f8 a32f f2ff 5e36 8d77 6433
000000e0: 4a56 ebb5 81e1 4635 6e6a 5cb6 6232 d5b0
000000f0: 5a71 11b7 0d4b bf33 7982 2bb4 4456 42b7

exp_avg_sq f4 [64]
4.8094773e-09 7.937052e-09 1.2074956e-07 8.6757534e-10 1.526974e-07 1.6287298e-07 1.367503e-09 2.2840214e-07
2.4411301e-08 1.2909847e-13 1.8088164e-07 8.1447865e-07 5.1390048e-14 3.5116375e-07 3.0963577e-08 3.723125e-10
1.3261389e-07 6.425019e-10 3.3722378e-07 7.641285e-14 6.334625e-08 2.8007823e-09 9.393321e-08 1.3794871e-08
3.1148824e-07 2.0306063e-06 3.9852942e-08 1.0837239e-07 2.0274014e-07 3.5121143e-08 1.2925526e-07 1.2061432e-06
6.617511e-09 5.256798e-07 5.9649703e-09 2.0160802e-07 1.9464859e-07 7.992589e-08 5.4893405e-07 3.6394095e-08
8.7572744e-13 1.9877788e-08 2.6425145e-10 2.8403832e-07 6.150262e-07 1.0744526e-07 2.938597e-07 3.0727563e-07
4.6199864e-07 2.1793678e-10 1.14606976e-07 5.310993e-09 8.64671e-09 2.7054512e-08 1.4478583e-07 3.7954184e-10
2.8421067e-07 1.7648846e-08 3.696896e-07 6.9526107e-13 3.553543e-07 1.716768e-08 2.8604938e-09 6.440146e-07
00000000: 9c40 a531 865b 0832 63a7 0134 307a 6e30
00000010: 24f5 2334 2fe2 2e34 bcf2 bb30 b43e 7534
00000020: 05b1 d132 1a5a 112a 5e38 4234 8ca2 5a35
00000030: b170 6729 9487 bc34 d0fc 0433 53ae cc2f
00000040: a164 0e34 0d9c 3030 af0b b534 0211 ac29
00000050: f808 8833 e277 4031 54b8 c933 7cfe 6c32
00000060: 9e3a a734 8d45 0836 c62a 2b33 5aba e833
00000070: c9b0 5934 1bd8 1633 6ac9 0a34 c4e2 a135
00000080: 3e60 e331 711c 0d35 6ff4 cc31 9779 5834
00000090: 9900 5134 b9a3 ab33 765a 1335 bb4f 1c33
000000a0: d07e 762b b8bf aa32 1646 912f ee7d 9834
000000b0: 4718 2535 a8bc e633 c5c3 9d34 a4f7 a434
000000c0: 9c08 f834 c09f 6f2f da1d f633 fd7b b631
000000d0: a28c 1432 8065 e832 6d76 1b34 c4a7 d02f
000000e0: 9e95 9834 399a 9732 c079 c634 d7b2 432b
000000f0: 86c7 be34 2178 9332 5792 4431 59e0 2c35

exp_avg f4 [32, 64, 1, 1]
6e-45 6e-45 6e-45 6e-45 6e-45 6e-45 6e-45 6e-45
6e-45 6e-45 6e-45 6e-45 6e-45 6e-45 6e-45 6e-45
6e-45 6e-45 6e-45 6e-45 6e-45 6e-45 6e-45 6e-45
6e-45 6e-45 6e-45 6e-45 6e-45 6e-45 6e-45 6e-45
6e-45 6e-45 6e-45 6e-45 6e-45 6e-45 6e-45 6e-45
6e-45 6e-45 6e-45 6e-45 6e-45 6e-45 6e-45 6e-45
6e-45 6e-45 6e-45 6e-45 6e-45 6e-45 6e-45 6e-45
6e-45 6e-45 6e-45 -6e-45 6e-45 6e-45 6e-45 6e-45
6e-45 6e-45 6e-45 -6e-45 6e-45 6e-45 6e-45 6e-45
6e-45 6e-45 6e-45 6e-45 6e-45 6e-45 6e-45 6e-45
6e-45 6e-45 6e-45 6e-45 6e-45 6e-45 6e-45 6e-45
6e-45 6e-45 6e-45 6e-45 6e-45 6e-45 6e-45 6e-45
6e-45 6e-45 6e-45 6e-45 6e-45 -6e-45 6e-45 6e-45
6e-45 6e-45 -6e-45 6e-45 6e-45 6e-45 6e-45 6e-45
6e-45 6e-45 6e-45 6e-45 6e-45 6e-45 6e-45 6e-45
6e-45 6e-45 6e-45 -6e-45 6e-45 6e-45 6e-45 6e-45
6e-45 1.717504e-09 6.548286e-07 -2.0676914e-07 -3.1318468e-08 1.44641e-07 1.6806065e-10 -1.3166705e-07
-3.8006906e-08 4.9855193e-11 -2.5335947e-07 -8.304363e-07 6e-45 2.2015553e-07 -4.4745008e-09 -2.769729e-10
2.1260993e-07 -1.4253604e-10 2.6391925e-07 -6e-45 8.5213003e-07 1.6319296e-10 1.1773768e-06 -8.357298e-13
1.0200732e-06 -4.582043e-07 2.8423273e-08 6e-45 6.903786e-07 -2.786726e-09 -8.956652e-08 2.4921223e-06
2.2227897e-11 1.1143824e-07 2.8164157e-10 8.8860514e-07 1.2138594e-06 8.691543e-07 2.7684737e-07 1.4175858e-08
6e-45 6.0185277e-12 1.20619195e-08 -4.746332e-08 1.8784273e-06 4.582057e-07 8.212592e-08 7.9644434e-07
8.8190694e-07 2.029516e-08 4.4531404e-08 3.442926e-07 -1.2740958e-09 1.3872446e-11 1.8369202e-06 3.483237e-10
2.1442268e-07 3.0995488e-07 8.0159674e-07 1.7195455e-11 -2.7564914e-07 -8.602674e-09 -4.001799e-07 -1.8832353e-07
-6e-45 1.06536446e-10 -6.188474e-06 7.1582484e-08 -8.5074735e-06 -6.634346e-06 6.5366906e-11 -8.647359e-06
2.7800144e-09 4.9608564e-12 -1.2401095e-05 -8.484763e-06 -6e-45 -9.974257e-06 3.4377578e-08 1.811021e-10
-1.7823157e-05 2.7663039e-11 -3.2887122e-06 -6e-45 -8.02263e-06 1.5709668e-11 -1.2315505e-05 8.154806e-12
-1.4576111e-05 -1.9228482e-05 -1.9504498e-08 -2.3226194e-11 -6.2242484e-06 -8.685824e-10 -5.8314936e-06 -1.3119275e-05
1.15230134e-11 -1.0531611e-05 -5.7589006e-08 -7.1994045e-06 -7.4777295e-06 -8.842091e-06 -4.3794926e-06 -4.212564e-07
-6e-45 3.6118214e-10 -7.1106268e-09 -8.805384e-06 -1.9058021e-05 -3.051107e-06 -3.690209e-06 -8.252342e-06
-6.2363843e-06 -1.1951236e-07 -1.3352777e-05 -1.457595e-06 -2.634046e-09 2.341385e-11 -1.7768612e-05 1.0192188e-09
-7.4253976e-06 -2.6646006e-07 -6.211278e-06 7.160268e-11 -4.339325e-06 3.758322e-09 -1.8305184e-07 -1.21021585e-05
00000000: 0400 0000 0400 0000 0400 0000 0400 0000
00000010: 0400 0000 0400 0000 0400 0000 0400 0000
00000020: 0400 0000 0400 0000 0400 0000 0400 0000
00000030: 0400 0000 0400 0000 0400 0000 0400 0000
00000040: 0400 0000 0400 0000 0400 0000 0400 0000
00000050: 0400 0000 0400 0000 0400 0000 0400 0000
00000060: 0400 0000 0400 0000 0400 0000 0400 0000
00000070: 0400 0000 0400 0000 0400 0000 0400 0000
00000080: 0400 0000 0400 0000 0400 0000 0400 0000
00000090: 0400 0000 0400 0000 0400 0000 0400 0000
000000a0: 0400 0000 0400 0000 0400 0000 0400 0000
000000b0: 0400 0000 0400 0000 0400 0000 0400 0000
000000c0: 0400 0000 0400 0000 0400 0000 0400 0000
000000d0: 0400 0000 0400 0000 0400 0000 0400 0000
000000e0: 0400 0000 0400 0000 0400 0000 0400 0080
000000f0: 0400 0000 0400 0000 0400 0000 0400 0000
00000100: 0400 0000 0400 0000 0400 0000 0400 0080
00000110: 0400 0000 0400 0000 0400 0000 0400 0000
00000120: 0400 0000 0400 0000 0400 0000 0400 0000
00000130: 0400 0000 0400 0000 0400 0000 0400 0000
00000140: 0400 0000 0400 0000 0400 0000 0400 0000
00000150: 0400 0000 0400 0000 0400 0000 0400 0000
00000160: 0400 0000 0400 0000 0400 0000 0400 0000
00000170: 0400 0000 0400 0000 0400 0000 0400 0000
00000180: 0400 0000 0400 0000 0400 0000 0400 0000
00000190: 0400 0000 0400 0080 0400 0000 0400 0000
000001a0: 0400 0000 0400 0000 0400 0080 0400 0000
000001b0: 0400 0000 0400 0000 0400 0000 0400 0000
000001c0: 0400 0000 0400 0000 0400 0000 0400 0000
000001d0: 0400 0000 0400 0000 0400 0000 0400 0000
000001e0: 0400 0000 0400 0000 0400 0000 0400 0080
000001f0: 0400 0000 0400 0000 0400 0000 0400 0000
00000200: 0400 0000 4d0d ec30 7bc7 2f35 4504 5eb4
00000210: 0583 06b3 9e4e 1b34 dec8 382f 5d60 0db4
00000220: 093d 23b3 f543 5b2e 7605 88b4 26eb 5eb5
00000230: 0400 0000 e463 6c34 20be 99b1 7844 98af
00000240: c649 6434 54b8 1caf c9b0 8d34 0400 0080
00000250: eebd 6435 bc6e 332f 5c06 9e35 ae3c 6bab
00000260: 73e9 8835 1fff f5b4 7027 f432 0400 0000
00000270: 7552 3935 9a80 3fb1 b757 c0b3 563e 2736
00000280: c684 c32d d24f ef33 87d5 9a2f 7b88 6e35
00000290: e4eb a235 d44f 6935 9da1 9434 158a 7332
000002a0: 0400 0000 14c2 d32c e238 4f32 79da 4bb3
000002b0: 451e fc35 50ff f534 345d b033 3dcb 5535
000002c0: 2fbc 6c35 8755 ae32 cc42 3f33 37d7 b834
000002d0: 431c afb0 f10b 742d 198c f635 347e bf2f
000002e0: 0f3c 6634 e067 a634 4f2d 5735 b940 972d
000002f0: eefc 93b4 f6ca 13b2 4fd8 d6b4 fa35 4ab4
00000300: 0400 0080 b046 ea2e 96a6 cfb6 e3b8 9933
00000310: 52bb 0eb7 999c deb6 4cbe 8f2e 2014 11b7
00000320: 880a 3f31 6c8b ae2c 4c0e 50b7 c859 0eb7
00000330: 0400 0080 1c57 27b7 8ca6 1333 b61f 472f
00000340: f082 95b7 a053 f32d a5b3 5cb6 0400 0080
00000350: ef98 06b7 072f 8a2d b19e 4eb7 fb75 0f2d
00000360: ec8b 74b7 da4c a1b7 d88a a7b2 bd4c ccad
00000370: e3d9 d0b6 0dc1 6eb0 26ac c3b6 db1a 5cb7
00000380: 0ab7 4a2d edb0 30b7 c857 77b3 6a92 f1b6
00000390: 35e9 fab6 7e58 14b7 8ef3 92b6 0a29 e2b4
000003a0: 0400 0080 de8f c62f bc51 f4b1 d6ba 13b7
000003b0: cade 9fb7 9ec1 4cb6 4fa5 77b6 8a73 0ab7
000003c0: 2242 d1b6 4f53 00b4 be05 60b7 95a2 c3b5
000003d0: a102 35b1 4ef3 cd2d ce0d 95b7 9314 8c30
000003e0: ae27 f9b6 fe0d 8fb4 796a d0b6 ba74 9d2e
000003f0: 859a 91b6 8d22 8131 e88c 44b4 600a 4bb7

exp_avg_sq f4 [32, 64, 1, 1]
1.829632e-10 8.737702e-10 1.1548398e-10 1.7311011e-17 2.2230977e-13 1.5212673e-10 1.6367517e-13 5.1849604e-11
1.3388235e-16 1.9571072e-16 1.3620248e-09 1.4733653e-10 4.378752e-17 7.6866663e-10 1.5908368e-09 5.2012518e-12
7.6883915e-16 3.161963e-12 1.2379695e-12 6.7787007e-19 1.0138411e-13 1.6346229e-17 1.2422167e-10 5.118826e-15
6.486241e-11 1.2928032e-15 8.7199453e-10 9.51238e-10 1.3976507e-09 2.20676e-09 1.9616707e-10 5.758119e-17
5.540128e-10 1.2053846e-12 1.139847e-11 5.2453414e-10 6.756519e-10 7.4798384e-10 1.725039e-09 2.9630565e-09
2.6977694e-15 9.1495436e-11 2.6496947e-12 1.4010934e-09 5.7077143e-09 1.1985808e-10 2.7645475e-12 3.1849274e-09
6.7046216e-11 5.495783e-12 1.342949e-10 3.1024068e-20 2.57928e-10 4.6464598e-17 3.8355803e-09 1.7248588e-09
2.4678493e-13 3.1164557e-10 2.7986906e-11 1.6580197e-19 2.5285972e-13 1.5224796e-10 2.9472823e-11 1.3784688e-08
5.658025e-12 1.457876e-09 2.6424152e-10 1.1191955e-15 6.336351e-15 1.699963e-12 7.2332435e-12 2.8738225e-12
3.4302672e-16 1.6209244e-18 1.560754e-09 1.309021e-09 5.522115e-16 2.0477473e-09 3.375629e-09 1.635582e-10
1.7707525e-17 1.6322628e-13 3.0000039e-12 2.7388097e-18 1.5898453e-14 3.41494e-17 1.6211496e-10 1.6174e-13
5.4402514e-14 3.0934044e-13 1.0100113e-09 2.5818216e-09 5.09968e-10 1.7040501e-09 1.3321937e-11 2.3389475e-16
2.49125e-10 1.455337e-12 2.573373e-13 3.3681962e-09 8.382689e-09 6.6095245e-09 2.7304294e-09 5.2329927e-09
1.5928362e-15 1.8238617e-09 1.0669397e-13 3.042792e-09 5.868613e-09 6.7658285e-10 2.1798576e-14 8.368586e-09
4.1590864e-10 4.75522e-13 7.5929507e-10 1.4191432e-18 2.6376345e-12 4.3043554e-17 1.3410619e-09 2.1490039e-09
8.3436435e-12 2.4053923e-10 3.731928e-10 1.085183e-19 7.682799e-13 1.5726348e-12 2.1405924e-10 2.1214039e-08
2.6139057e-13 2.947729e-11 8.757721e-12 6.2377675e-14 1.7922129e-11 1.5079415e-11 3.0866748e-14 1.2300333e-11
1.1003696e-15 7.570202e-16 4.4832485e-11 1.6425302e-11 1.9123278e-18 3.8831473e-11 3.1562582e-11 4.2382493e-13
1.7460837e-11 2.6339532e-13 7.942133e-12 1.2122202e-17 8.917118e-12 1.6690027e-15 2.761561e-11 7.154436e-15
8.008551e-11 2.7697063e-11 2.9180217e-11 2.81071e-12 1.9277444e-11 3.3235296e-11 6.5983508e-12 7.83535e-11
8.90082e-12 9.320387e-12 5.244298e-12 4.2055964e-12 1.4053219e-11 1.556426e-11 2.62268e-11 6.1519956e-11
1.5582343e-14 3.0776475e-13 2.7596345e-12 1.7197301e-11 1.6139493e-10 8.124748e-13 2.0491595e-12 2.737192e-11
5.3798923e-12 1.0080851e-12 3.921549e-11 9.183729e-12 2.1483499e-11 1.7759769e-15 1.4110575e-10 3.5445077e-11
6.0015174e-12 4.851436e-12 1.5121394e-11 3.4264256e-16 6.0384766e-12 3.925352e-12 1.07910466e-13 2.0260736e-10
2.1779764e-11 1.0292786e-09 3.9036752e-07 4.8828722e-11 2.747589e-07 1.8852467e-07 1.5221803e-12 3.0899025e-07
2.8201665e-09 5.248946e-16 3.3799947e-07 4.1442578e-07 1.4879918e-16 5.989412e-07 3.1778653e-09 3.637268e-11
7.085434e-07 2.2757038e-13 1.2330348e-07 1.20562385e-17 2.80306e-07 9.167232e-11 3.7368284e-07 1.786422e-08
8.8194696e-07 7.959834e-07 8.6957325e-10 1.655415e-09 2.1505961e-07 2.963292e-08 2.1088188e-07 6.510014e-07
2.1900905e-10 2.2771476e-07 5.639938e-10 3.293667e-07 2.0419357e-07 2.2827979e-07 1.1848573e-07 1.0480218e-08
1.0505691e-15 6.0411065e-10 1.852075e-12 4.5215128e-07 1.9393947e-06 1.8200875e-07 9.5718406e-08 1.978146e-07
1.389917e-07 2.3755282e-12 7.1532145e-07 6.771859e-08 9.202657e-11 1.1834752e-09 1.2567571e-06 2.9475336e-09
1.664525e-07 7.646387e-09 2.3084472e-07 2.5561155e-17 1.9123846e-07 3.1847026e-08 3.2234795e-11 1.0278535e-06
00000000: 902b 492f 1d2e 7030 b3f3 fd2e 78aa 9f23
00000010: 6e4c 7a2a de43 272f 2848 382a 7709 642e
00000020: 185b 1a25 9ca3 6125 fd31 bb30 8cff 212f
00000030: 2eef 4924 1b4a 5330 98a4 da30 b600 b72c
00000040: 519a 5d26 dd80 5e2c 8d3a ae2b 6a12 4821
00000050: f64b e429 71c4 9623 4b95 082f d66c b827
00000060: 4aa2 8e2e 0550 ba26 29b1 6f30 b6bc 8230
00000070: 7617 c030 bca5 1731 1fb0 572f efc5 8424
00000080: 2f49 1830 8fa4 a92b 2586 482d cf2e 1030
00000090: c7b8 3930 af9a 4d30 6a16 ed30 a49e 4b31
000000a0: 1065 4227 5a33 c92e a874 3a2c 9790 c030
000000b0: 961d c431 0dc9 032f a989 422c d6dd 5a31
000000c0: aa6f 932e 9d5d c12c a7a8 132f cc81 121f
000000d0: 24cc 8d2f b747 5624 1fca 8331 1310 ed30
000000e0: 75ed 8a2a 3754 ab2f e92c f62d 92be 4320
000000f0: ed58 8e2a fe65 272f 739f 012e b3d1 6c32
00000100: f512 c72c 745e c830 b044 912f 074b a126
00000110: 864a e427 9f3f ef2b 447f fe2c 2f3a 4a2c
00000120: cfbd c525 cb34 ef21 2682 d630 15e9 b330
00000130: 042a 1f26 5ab8 0c31 b2f8 6731 8ad5 332f
00000140: b652 a323 c6c6 372a 441b 532c a716 4a22
00000150: 5633 8f28 7f7c 1d24 4e3f 322f 621a 362a
00000160: d401 7529 a824 ae2a 9dd0 8a30 e36b 3131
00000170: cf2d 0c30 ef33 ea30 ac5c 6a2d c6d4 8625
00000180: 3af5 882f 0bd2 cc2b 37de 902a ef75 6731
00000190: 7503 1032 fe19 e331 39a2 3b31 e4cd b331
000001a0: 498d e526 6eab fa30 e340 f029 5d19 5131
000001b0: dea4 c931 49fa 3930 1858 c428 6ec5 0f32
000001c0: f0a5 e42f f9d8 052b a4b6 5030 b76d d121
000001d0: 669b 392c dc80 4624 6c50 b830 adad 1331
000001e0: 6ec8 122d e33c 842f 382a cd2f a51d 0020
000001f0: 6740 582b 2454 dd2b 525c 6b2f 2a3a b632
00000200: 5a26 932a 7aa4 012e 4511 1a2d 4876 8c29
00000210: 0ca5 9d2d d3a3 842d f002 0b29 c663 582d
00000220: 7994 9e26 3b32 5a26 e42c 452e 7e7a 902d
00000230: da1a 0d22 5ac8 2a2e 4fd0 0a2e 9c97 ee2a
00000240: 4f96 992d 4447 942a 30b8 0b2d 7b9d 5f23
00000250: 21df 1c2d 5587 f026 d3e8 f22d 03e2 0028
00000260: 221c b02e 3ea0 f32d 0156 002e 40c9 452c
00000270: f290 a92d 9e2b 122e a928 e82c 194d ac2e
00000280: bb95 1c2d 4bf7 232d 7084 b82c a5f8 932c
00000290: 123a 772d 99e7 882d 81b1 e62d a848 872e
000002a0: 705a 8c28 9341 ad2a 2831 422c e144 972d
000002b0: a274 312f fbb0 642b 6032 102c 16c4 f02d
000002c0: c349 bd2c 18e0 8d2b b778 2c2e d78f 212d
000002d0: 8af8 bc2d fcf1 ff26 bd25 1b2f 9ce3 1b2e
000002e0: dd28 d32c dab1 aa2c 5a02 852d 1e85 c525
000002f0: c375 d42c 6d1c 8a2c 26fe f229 e7c4 5e2f
00000300: ab93 bf2d 8576 8d30 b493 d134 41c0 562e
00000310: 9382 9334 446d 4a34 533a d62b 4ce3 a534
00000320: e5cc 4131 634a 1726 4b76 b534 3f7e de34
00000330: c48d 2b25 edc6 2035 9961 5a31 fff7 1f2e
00000340: bb32 3e35 591c 802a 6765 0434 fa65 5e23
00000350: f77c 9634 ee96 c92e 949e c834 d673 9932
00000360: efbe 6c35 90ab 5535 c706 6f30 bd84 e330
00000370: 23eb 6634 7b8b fe32 c56e 6234 7ac0 2e35
00000380: 91cd 702f c281 7434 8907 1b30 d1d3 b034
00000390: 4d40 5b34 121d 7534 3872 fe33 7c0c 3432
000003a0: 2967 9726 820e 2630 0454 022c 33bf f234
000003b0: 8c26 0236 2f6e 4334 c08d cd33 dd66 5434
000003c0: bf3d 1534 b629 272c 8404 4035 b06c 9133
000003d0: 5a5e ca2e d5a7 a230 d8ad a835 8f8d 4a31
000003e0: 1dba 3234 2a5d 0332 1dde 7734 92c2 eb23
000003f0: 3a57 4d34 2dc8 0833 27c5 0d2e c7f4 8935

exp_avg f4 [32]
6e-45 6e-45 1.4109575e-06 -2.1437494e-05 -2.2954795e-05 -1.9773019e-05 -1.7858885e-06 -1.3067495e-05
-5.7591847e-06 6e-45 -2.3601213e-05 -4.2549623e-06 -1.7169277e-05 6e-45 -2.6697699e-05 -2.1577373e-05
0.0 -2.4144741e-05 7.0288106e-06 3.1079576e-06 1.3767798e-09 1.8463204e-06 -1.200072e-05 6.9262423e-06
1.7495107e-06 -1.8597228e-05 -8.071067e-06 -1.6383783e-05 -1.6649803e-06 2.7488792e-07 -1.4901011e-05 2.8184854e-07
00000000: 0400 0000 0400 0000 2160 bd35 abd4 b3b7
00000010: 0c8f c0b7 3cde a5b7 a9b2 efb5 773c 5bb7
00000020: 053f c1b6 0400 0000 38fb c5b7 d9c5 8eb6
00000030: be06 90b7 0400 0000 dff4 dfb7 0e01 b5b7
00000040: 0000 0000 708a cab7 06d9 eb36 4e92 5036
00000050: 2239 bd30 16cf f735 b356 49b7 f867 e836
00000060: bbd0 ea35 3e01 9cb7 f868 07b7 e86f 89b7
00000070: 4a78 dfb5 4f94 9334 5bff 79b7 f850 9734
